{"class_name": "Model", "keras_version": "2.1.3", "config": {"layers": [{"class_name": "InputLayer", "config": {"dtype": "float32", "batch_input_shape": [null, 16, 128, 208, 3], "name": "input_1", "sparse": false}, "inbound_nodes": [], "name": "input_1"}, {"class_name": "TimeDistributed", "config": {"layer": {"class_name": "Lambda", "config": {"function": ["YwEAAAABAAAABAAAAFNgAQBzEwAAAHQAAGoBAGoCAHwAAGQCAIMCAFMoAwAAAE5pcAAAACgCAAAA\naXAAAABpcAAAACgDAAAAdAIAAAB0ZnQFAAAAaW1hZ2V0DQAAAHJlc2l6ZV9pbWFnZXMoAQAAAFIB\nAAAAKAAAAAAoAAAAAHMSAAAAb3JpZ19jbGFzc2lmaWVyLnB5dAgAAAA8bGFtYmRhPmoAAABzAAAA\nAA==\n", null, null], "name": "lambda_1", "trainable": true, "function_type": "lambda", "arguments": {}, "output_shape": null, "output_shape_type": "raw"}}, "trainable": true, "name": "time_distributed_1"}, "inbound_nodes": [[["input_1", 0, 0, {}]]], "name": "time_distributed_1"}, {"class_name": "Sequential", "config": [{"class_name": "Conv3D", "config": {"kernel_initializer": {"class_name": "VarianceScaling", "config": {"distribution": "uniform", "scale": 1.0, "seed": null, "mode": "fan_avg"}}, "name": "conv1", "kernel_constraint": null, "bias_regularizer": null, "bias_constraint": null, "dtype": "float32", "activation": "relu", "trainable": false, "data_format": "channels_last", "padding": "same", "strides": [1, 1, 1], "dilation_rate": [1, 1, 1], "kernel_regularizer": null, "filters": 64, "bias_initializer": {"class_name": "Zeros", "config": {}}, "batch_input_shape": [null, 16, 112, 112, 3], "use_bias": true, "activity_regularizer": null, "kernel_size": [3, 3, 3]}}, {"class_name": "MaxPooling3D", "config": {"name": "pool1", "trainable": false, "data_format": "channels_last", "pool_size": [1, 2, 2], "padding": "valid", "strides": [1, 2, 2]}}, {"class_name": "Conv3D", "config": {"kernel_initializer": {"class_name": "VarianceScaling", "config": {"distribution": "uniform", "scale": 1.0, "seed": null, "mode": "fan_avg"}}, "name": "conv2", "kernel_constraint": null, "bias_regularizer": null, "bias_constraint": null, "activation": "relu", "trainable": false, "data_format": "channels_last", "padding": "same", "strides": [1, 1, 1], "dilation_rate": [1, 1, 1], "kernel_regularizer": null, "filters": 128, "bias_initializer": {"class_name": "Zeros", "config": {}}, "use_bias": true, "activity_regularizer": null, "kernel_size": [3, 3, 3]}}, {"class_name": "MaxPooling3D", "config": {"name": "pool2", "trainable": false, "data_format": "channels_last", "pool_size": [2, 2, 2], "padding": "valid", "strides": [2, 2, 2]}}, {"class_name": "Conv3D", "config": {"kernel_initializer": {"class_name": "VarianceScaling", "config": {"distribution": "uniform", "scale": 1.0, "seed": null, "mode": "fan_avg"}}, "name": "conv3a", "kernel_constraint": null, "bias_regularizer": null, "bias_constraint": null, "activation": "relu", "trainable": false, "data_format": "channels_last", "padding": "same", "strides": [1, 1, 1], "dilation_rate": [1, 1, 1], "kernel_regularizer": null, "filters": 256, "bias_initializer": {"class_name": "Zeros", "config": {}}, "use_bias": true, "activity_regularizer": null, "kernel_size": [3, 3, 3]}}, {"class_name": "Conv3D", "config": {"kernel_initializer": {"class_name": "VarianceScaling", "config": {"distribution": "uniform", "scale": 1.0, "seed": null, "mode": "fan_avg"}}, "name": "conv3b", "kernel_constraint": null, "bias_regularizer": null, "bias_constraint": null, "activation": "relu", "trainable": false, "data_format": "channels_last", "padding": "same", "strides": [1, 1, 1], "dilation_rate": [1, 1, 1], "kernel_regularizer": null, "filters": 256, "bias_initializer": {"class_name": "Zeros", "config": {}}, "use_bias": true, "activity_regularizer": null, "kernel_size": [3, 3, 3]}}, {"class_name": "MaxPooling3D", "config": {"name": "pool3", "trainable": false, "data_format": "channels_last", "pool_size": [2, 2, 2], "padding": "valid", "strides": [2, 2, 2]}}, {"class_name": "Conv3D", "config": {"kernel_initializer": {"class_name": "VarianceScaling", "config": {"distribution": "uniform", "scale": 1.0, "seed": null, "mode": "fan_avg"}}, "name": "conv4a", "kernel_constraint": null, "bias_regularizer": null, "bias_constraint": null, "activation": "relu", "trainable": false, "data_format": "channels_last", "padding": "same", "strides": [1, 1, 1], "dilation_rate": [1, 1, 1], "kernel_regularizer": null, "filters": 512, "bias_initializer": {"class_name": "Zeros", "config": {}}, "use_bias": true, "activity_regularizer": null, "kernel_size": [3, 3, 3]}}, {"class_name": "Conv3D", "config": {"kernel_initializer": {"class_name": "VarianceScaling", "config": {"distribution": "uniform", "scale": 1.0, "seed": null, "mode": "fan_avg"}}, "name": "conv4b", "kernel_constraint": null, "bias_regularizer": null, "bias_constraint": null, "activation": "relu", "trainable": false, "data_format": "channels_last", "padding": "same", "strides": [1, 1, 1], "dilation_rate": [1, 1, 1], "kernel_regularizer": null, "filters": 512, "bias_initializer": {"class_name": "Zeros", "config": {}}, "use_bias": true, "activity_regularizer": null, "kernel_size": [3, 3, 3]}}, {"class_name": "MaxPooling3D", "config": {"name": "pool4", "trainable": false, "data_format": "channels_last", "pool_size": [2, 2, 2], "padding": "valid", "strides": [2, 2, 2]}}, {"class_name": "Conv3D", "config": {"kernel_initializer": {"class_name": "VarianceScaling", "config": {"distribution": "uniform", "scale": 1.0, "seed": null, "mode": "fan_avg"}}, "name": "conv5a", "kernel_constraint": null, "bias_regularizer": null, "bias_constraint": null, "activation": "relu", "trainable": false, "data_format": "channels_last", "padding": "same", "strides": [1, 1, 1], "dilation_rate": [1, 1, 1], "kernel_regularizer": null, "filters": 512, "bias_initializer": {"class_name": "Zeros", "config": {}}, "use_bias": true, "activity_regularizer": null, "kernel_size": [3, 3, 3]}}, {"class_name": "Conv3D", "config": {"kernel_initializer": {"class_name": "VarianceScaling", "config": {"distribution": "uniform", "scale": 1.0, "seed": null, "mode": "fan_avg"}}, "name": "conv5b", "kernel_constraint": null, "bias_regularizer": null, "bias_constraint": null, "activation": "relu", "trainable": false, "data_format": "channels_last", "padding": "same", "strides": [1, 1, 1], "dilation_rate": [1, 1, 1], "kernel_regularizer": null, "filters": 512, "bias_initializer": {"class_name": "Zeros", "config": {}}, "use_bias": true, "activity_regularizer": null, "kernel_size": [3, 3, 3]}}, {"class_name": "ZeroPadding3D", "config": {"padding": [[0, 0], [0, 1], [0, 1]], "trainable": false, "name": "zeropad5", "data_format": "channels_last"}}, {"class_name": "MaxPooling3D", "config": {"name": "pool5", "trainable": true, "data_format": "channels_last", "pool_size": [2, 2, 2], "padding": "valid", "strides": [2, 2, 2]}}, {"class_name": "Flatten", "config": {"trainable": true, "name": "flatten_1"}}], "inbound_nodes": [[["time_distributed_1", 0, 0, {}]]], "name": "sequential_1"}, {"class_name": "Dense", "config": {"kernel_initializer": {"class_name": "VarianceScaling", "config": {"distribution": "uniform", "scale": 1.0, "seed": null, "mode": "fan_avg"}}, "name": "dense_1", "kernel_constraint": null, "bias_regularizer": null, "bias_constraint": null, "activation": "tanh", "trainable": true, "kernel_regularizer": null, "bias_initializer": {"class_name": "Zeros", "config": {}}, "units": 1024, "use_bias": true, "activity_regularizer": null}, "inbound_nodes": [[["sequential_1", 1, 0, {}]]], "name": "dense_1"}, {"class_name": "BatchNormalization", "config": {"beta_constraint": null, "gamma_initializer": {"class_name": "Ones", "config": {}}, "moving_mean_initializer": {"class_name": "Zeros", "config": {}}, "name": "batch_normalization_1", "epsilon": 0.001, "trainable": true, "moving_variance_initializer": {"class_name": "Ones", "config": {}}, "beta_initializer": {"class_name": "Zeros", "config": {}}, "scale": true, "axis": -1, "gamma_constraint": null, "gamma_regularizer": null, "beta_regularizer": null, "momentum": 0.99, "center": true}, "inbound_nodes": [[["dense_1", 0, 0, {}]]], "name": "batch_normalization_1"}, {"class_name": "Dropout", "config": {"rate": 0.5, "noise_shape": null, "trainable": true, "seed": null, "name": "dropout_1"}, "inbound_nodes": [[["batch_normalization_1", 0, 0, {}]]], "name": "dropout_1"}, {"class_name": "Dense", "config": {"kernel_initializer": {"class_name": "VarianceScaling", "config": {"distribution": "uniform", "scale": 1.0, "seed": null, "mode": "fan_avg"}}, "name": "dense_2", "kernel_constraint": null, "bias_regularizer": null, "bias_constraint": null, "activation": "tanh", "trainable": true, "kernel_regularizer": null, "bias_initializer": {"class_name": "Zeros", "config": {}}, "units": 512, "use_bias": true, "activity_regularizer": null}, "inbound_nodes": [[["dropout_1", 0, 0, {}]]], "name": "dense_2"}, {"class_name": "BatchNormalization", "config": {"beta_constraint": null, "gamma_initializer": {"class_name": "Ones", "config": {}}, "moving_mean_initializer": {"class_name": "Zeros", "config": {}}, "name": "batch_normalization_2", "epsilon": 0.001, "trainable": true, "moving_variance_initializer": {"class_name": "Ones", "config": {}}, "beta_initializer": {"class_name": "Zeros", "config": {}}, "scale": true, "axis": -1, "gamma_constraint": null, "gamma_regularizer": null, "beta_regularizer": null, "momentum": 0.99, "center": true}, "inbound_nodes": [[["dense_2", 0, 0, {}]]], "name": "batch_normalization_2"}, {"class_name": "Dropout", "config": {"rate": 0.5, "noise_shape": null, "trainable": true, "seed": null, "name": "dropout_2"}, "inbound_nodes": [[["batch_normalization_2", 0, 0, {}]]], "name": "dropout_2"}, {"class_name": "Dense", "config": {"kernel_initializer": {"class_name": "VarianceScaling", "config": {"distribution": "uniform", "scale": 1.0, "seed": null, "mode": "fan_avg"}}, "name": "dense_3", "kernel_constraint": null, "bias_regularizer": null, "bias_constraint": null, "activation": "sigmoid", "trainable": true, "kernel_regularizer": null, "bias_initializer": {"class_name": "Zeros", "config": {}}, "units": 7, "use_bias": true, "activity_regularizer": null}, "inbound_nodes": [[["dropout_2", 0, 0, {}]]], "name": "dense_3"}], "input_layers": [["input_1", 0, 0]], "output_layers": [["dense_3", 0, 0]], "name": "model_1"}, "backend": "tensorflow"}