{"class_name": "Sequential", "keras_version": "2.0.8", "config": [{"class_name": "Sequential", "config": [{"class_name": "Conv3D", "config": {"kernel_initializer": {"class_name": "VarianceScaling", "config": {"distribution": "uniform", "scale": 1.0, "seed": null, "mode": "fan_avg"}}, "name": "conv3d_1", "kernel_constraint": null, "bias_regularizer": null, "bias_constraint": null, "dtype": "float32", "activation": "linear", "trainable": true, "data_format": "channels_last", "padding": "same", "strides": [1, 4, 4], "dilation_rate": [1, 1, 1], "kernel_regularizer": null, "filters": 128, "bias_initializer": {"class_name": "Zeros", "config": {}}, "batch_input_shape": [null, 20, 128, 128, 3], "use_bias": true, "activity_regularizer": null, "kernel_size": [3, 11, 11]}}, {"class_name": "TimeDistributed", "config": {"layer": {"class_name": "BatchNormalization", "config": {"gamma_initializer": {"class_name": "Ones", "config": {}}, "moving_mean_initializer": {"class_name": "Zeros", "config": {}}, "name": "batch_normalization_1", "epsilon": 0.001, "trainable": true, "center": true, "moving_variance_initializer": {"class_name": "Ones", "config": {}}, "beta_initializer": {"class_name": "Zeros", "config": {}}, "scale": true, "gamma_regularizer": null, "gamma_constraint": null, "beta_constraint": null, "beta_regularizer": null, "momentum": 0.99, "axis": -1}}, "trainable": true, "name": "time_distributed_1"}}, {"class_name": "TimeDistributed", "config": {"layer": {"class_name": "LeakyReLU", "config": {"alpha": 0.20000000298023224, "trainable": true, "name": "leaky_re_lu_1"}}, "trainable": true, "name": "time_distributed_2"}}, {"class_name": "TimeDistributed", "config": {"layer": {"class_name": "Dropout", "config": {"rate": 0.5, "trainable": true, "name": "dropout_1"}}, "trainable": true, "name": "time_distributed_3"}}, {"class_name": "Conv3D", "config": {"kernel_initializer": {"class_name": "VarianceScaling", "config": {"distribution": "uniform", "scale": 1.0, "seed": null, "mode": "fan_avg"}}, "name": "conv3d_2", "kernel_constraint": null, "bias_regularizer": null, "bias_constraint": null, "activation": "linear", "trainable": true, "data_format": "channels_last", "padding": "same", "strides": [1, 2, 2], "dilation_rate": [1, 1, 1], "kernel_regularizer": null, "filters": 64, "bias_initializer": {"class_name": "Zeros", "config": {}}, "use_bias": true, "activity_regularizer": null, "kernel_size": [3, 5, 5]}}, {"class_name": "TimeDistributed", "config": {"layer": {"class_name": "BatchNormalization", "config": {"gamma_initializer": {"class_name": "Ones", "config": {}}, "moving_mean_initializer": {"class_name": "Zeros", "config": {}}, "name": "batch_normalization_2", "epsilon": 0.001, "trainable": true, "center": true, "moving_variance_initializer": {"class_name": "Ones", "config": {}}, "beta_initializer": {"class_name": "Zeros", "config": {}}, "scale": true, "gamma_regularizer": null, "gamma_constraint": null, "beta_constraint": null, "beta_regularizer": null, "momentum": 0.99, "axis": -1}}, "trainable": true, "name": "time_distributed_4"}}, {"class_name": "TimeDistributed", "config": {"layer": {"class_name": "LeakyReLU", "config": {"alpha": 0.20000000298023224, "trainable": true, "name": "leaky_re_lu_2"}}, "trainable": true, "name": "time_distributed_5"}}, {"class_name": "TimeDistributed", "config": {"layer": {"class_name": "Dropout", "config": {"rate": 0.5, "trainable": true, "name": "dropout_2"}}, "trainable": true, "name": "time_distributed_6"}}, {"class_name": "Conv3D", "config": {"kernel_initializer": {"class_name": "VarianceScaling", "config": {"distribution": "uniform", "scale": 1.0, "seed": null, "mode": "fan_avg"}}, "name": "conv3d_3", "kernel_constraint": null, "bias_regularizer": null, "bias_constraint": null, "activation": "linear", "trainable": true, "data_format": "channels_last", "padding": "same", "strides": [1, 1, 1], "dilation_rate": [1, 1, 1], "kernel_regularizer": null, "filters": 32, "bias_initializer": {"class_name": "Zeros", "config": {}}, "use_bias": true, "activity_regularizer": null, "kernel_size": [3, 5, 5]}}, {"class_name": "TimeDistributed", "config": {"layer": {"class_name": "BatchNormalization", "config": {"gamma_initializer": {"class_name": "Ones", "config": {}}, "moving_mean_initializer": {"class_name": "Zeros", "config": {}}, "name": "batch_normalization_3", "epsilon": 0.001, "trainable": true, "center": true, "moving_variance_initializer": {"class_name": "Ones", "config": {}}, "beta_initializer": {"class_name": "Zeros", "config": {}}, "scale": true, "gamma_regularizer": null, "gamma_constraint": null, "beta_constraint": null, "beta_regularizer": null, "momentum": 0.99, "axis": -1}}, "trainable": true, "name": "time_distributed_7"}}, {"class_name": "TimeDistributed", "config": {"layer": {"class_name": "LeakyReLU", "config": {"alpha": 0.20000000298023224, "trainable": true, "name": "leaky_re_lu_3"}}, "trainable": true, "name": "time_distributed_8"}}, {"class_name": "TimeDistributed", "config": {"layer": {"class_name": "Dropout", "config": {"rate": 0.5, "trainable": true, "name": "dropout_3"}}, "trainable": true, "name": "time_distributed_9"}}]}, {"class_name": "Model", "config": {"layers": [{"class_name": "InputLayer", "inbound_nodes": [], "config": {"dtype": "float32", "batch_input_shape": [null, 10, 16, 16, 32], "name": "input_1", "sparse": false}, "name": "input_1"}, {"class_name": "Conv3DTranspose", "inbound_nodes": [[["input_1", 0, 0, {}]]], "config": {"kernel_initializer": {"class_name": "VarianceScaling", "config": {"distribution": "uniform", "scale": 1.0, "seed": null, "mode": "fan_avg"}}, "name": "conv3d_transpose_1", "kernel_constraint": null, "bias_regularizer": null, "bias_constraint": null, "dtype": "float32", "activation": "linear", "trainable": true, "data_format": "channels_last", "padding": "same", "strides": [1, 1, 1], "kernel_regularizer": null, "filters": 64, "bias_initializer": {"class_name": "Zeros", "config": {}}, "batch_input_shape": [null, 10, 16, 16, 32], "use_bias": true, "activity_regularizer": null, "kernel_size": [3, 5, 5]}, "name": "conv3d_transpose_1"}, {"class_name": "TimeDistributed", "inbound_nodes": [[["conv3d_transpose_1", 0, 0, {}]]], "config": {"layer": {"class_name": "BatchNormalization", "config": {"gamma_initializer": {"class_name": "Ones", "config": {}}, "moving_mean_initializer": {"class_name": "Zeros", "config": {}}, "name": "batch_normalization_4", "epsilon": 0.001, "trainable": true, "center": true, "moving_variance_initializer": {"class_name": "Ones", "config": {}}, "beta_initializer": {"class_name": "Zeros", "config": {}}, "scale": true, "gamma_regularizer": null, "gamma_constraint": null, "beta_constraint": null, "beta_regularizer": null, "momentum": 0.99, "axis": -1}}, "trainable": true, "name": "time_distributed_10"}, "name": "time_distributed_10"}, {"class_name": "TimeDistributed", "inbound_nodes": [[["time_distributed_10", 0, 0, {}]]], "config": {"layer": {"class_name": "LeakyReLU", "config": {"alpha": 0.20000000298023224, "trainable": true, "name": "leaky_re_lu_4"}}, "trainable": true, "name": "time_distributed_11"}, "name": "time_distributed_11"}, {"class_name": "TimeDistributed", "inbound_nodes": [[["time_distributed_11", 0, 0, {}]]], "config": {"layer": {"class_name": "Dropout", "config": {"rate": 0.5, "trainable": true, "name": "dropout_4"}}, "trainable": true, "name": "time_distributed_12"}, "name": "time_distributed_12"}, {"class_name": "Conv3DTranspose", "inbound_nodes": [[["time_distributed_12", 0, 0, {}]]], "config": {"kernel_initializer": {"class_name": "VarianceScaling", "config": {"distribution": "uniform", "scale": 1.0, "seed": null, "mode": "fan_avg"}}, "name": "conv3d_transpose_2", "kernel_constraint": null, "bias_regularizer": null, "bias_constraint": null, "activation": "linear", "trainable": true, "data_format": "channels_last", "padding": "same", "strides": [1, 2, 2], "kernel_regularizer": null, "filters": 128, "bias_initializer": {"class_name": "Zeros", "config": {}}, "use_bias": true, "activity_regularizer": null, "kernel_size": [3, 5, 5]}, "name": "conv3d_transpose_2"}, {"class_name": "TimeDistributed", "inbound_nodes": [[["conv3d_transpose_2", 0, 0, {}]]], "config": {"layer": {"class_name": "BatchNormalization", "config": {"gamma_initializer": {"class_name": "Ones", "config": {}}, "moving_mean_initializer": {"class_name": "Zeros", "config": {}}, "name": "batch_normalization_5", "epsilon": 0.001, "trainable": true, "center": true, "moving_variance_initializer": {"class_name": "Ones", "config": {}}, "beta_initializer": {"class_name": "Zeros", "config": {}}, "scale": true, "gamma_regularizer": null, "gamma_constraint": null, "beta_constraint": null, "beta_regularizer": null, "momentum": 0.99, "axis": -1}}, "trainable": true, "name": "time_distributed_13"}, "name": "time_distributed_13"}, {"class_name": "TimeDistributed", "inbound_nodes": [[["time_distributed_13", 0, 0, {}]]], "config": {"layer": {"class_name": "LeakyReLU", "config": {"alpha": 0.20000000298023224, "trainable": true, "name": "leaky_re_lu_5"}}, "trainable": true, "name": "time_distributed_14"}, "name": "time_distributed_14"}, {"class_name": "TimeDistributed", "inbound_nodes": [[["time_distributed_14", 0, 0, {}]]], "config": {"layer": {"class_name": "Dropout", "config": {"rate": 0.5, "trainable": true, "name": "dropout_5"}}, "trainable": true, "name": "time_distributed_15"}, "name": "time_distributed_15"}, {"class_name": "Conv3DTranspose", "inbound_nodes": [[["time_distributed_15", 0, 0, {}]]], "config": {"kernel_initializer": {"class_name": "VarianceScaling", "config": {"distribution": "uniform", "scale": 1.0, "seed": null, "mode": "fan_avg"}}, "name": "conv3d_transpose_3", "kernel_constraint": null, "bias_regularizer": null, "bias_constraint": null, "activation": "linear", "trainable": true, "data_format": "channels_last", "padding": "same", "strides": [1, 2, 2], "kernel_regularizer": null, "filters": 64, "bias_initializer": {"class_name": "Zeros", "config": {}}, "use_bias": true, "activity_regularizer": null, "kernel_size": [3, 5, 5]}, "name": "conv3d_transpose_3"}, {"class_name": "TimeDistributed", "inbound_nodes": [[["conv3d_transpose_3", 0, 0, {}]]], "config": {"layer": {"class_name": "BatchNormalization", "config": {"gamma_initializer": {"class_name": "Ones", "config": {}}, "moving_mean_initializer": {"class_name": "Zeros", "config": {}}, "name": "batch_normalization_6", "epsilon": 0.001, "trainable": true, "center": true, "moving_variance_initializer": {"class_name": "Ones", "config": {}}, "beta_initializer": {"class_name": "Zeros", "config": {}}, "scale": true, "gamma_regularizer": null, "gamma_constraint": null, "beta_constraint": null, "beta_regularizer": null, "momentum": 0.99, "axis": -1}}, "trainable": true, "name": "time_distributed_16"}, "name": "time_distributed_16"}, {"class_name": "TimeDistributed", "inbound_nodes": [[["time_distributed_16", 0, 0, {}]]], "config": {"layer": {"class_name": "LeakyReLU", "config": {"alpha": 0.20000000298023224, "trainable": true, "name": "leaky_re_lu_6"}}, "trainable": true, "name": "time_distributed_17"}, "name": "time_distributed_17"}, {"class_name": "TimeDistributed", "inbound_nodes": [[["time_distributed_17", 0, 0, {}]]], "config": {"layer": {"class_name": "Dropout", "config": {"rate": 0.5, "trainable": true, "name": "dropout_6"}}, "trainable": true, "name": "time_distributed_18"}, "name": "time_distributed_18"}, {"class_name": "Conv3DTranspose", "inbound_nodes": [[["time_distributed_18", 0, 0, {}]]], "config": {"kernel_initializer": {"class_name": "VarianceScaling", "config": {"distribution": "uniform", "scale": 1.0, "seed": null, "mode": "fan_avg"}}, "name": "conv3d_transpose_4", "kernel_constraint": null, "bias_regularizer": null, "bias_constraint": null, "activation": "linear", "trainable": true, "data_format": "channels_last", "padding": "same", "strides": [1, 2, 2], "kernel_regularizer": null, "filters": 3, "bias_initializer": {"class_name": "Zeros", "config": {}}, "use_bias": true, "activity_regularizer": null, "kernel_size": [3, 11, 11]}, "name": "conv3d_transpose_4"}, {"class_name": "TimeDistributed", "inbound_nodes": [[["conv3d_transpose_4", 0, 0, {}]]], "config": {"layer": {"class_name": "BatchNormalization", "config": {"gamma_initializer": {"class_name": "Ones", "config": {}}, "moving_mean_initializer": {"class_name": "Zeros", "config": {}}, "name": "batch_normalization_7", "epsilon": 0.001, "trainable": true, "center": true, "moving_variance_initializer": {"class_name": "Ones", "config": {}}, "beta_initializer": {"class_name": "Zeros", "config": {}}, "scale": true, "gamma_regularizer": null, "gamma_constraint": null, "beta_constraint": null, "beta_regularizer": null, "momentum": 0.99, "axis": -1}}, "trainable": true, "name": "time_distributed_19"}, "name": "time_distributed_19"}, {"class_name": "TimeDistributed", "inbound_nodes": [[["time_distributed_19", 0, 0, {}]]], "config": {"layer": {"class_name": "Activation", "config": {"activation": "tanh", "trainable": true, "name": "activation_1"}}, "trainable": true, "name": "time_distributed_20"}, "name": "time_distributed_20"}, {"class_name": "TimeDistributed", "inbound_nodes": [[["time_distributed_20", 0, 0, {}]]], "config": {"layer": {"class_name": "Dropout", "config": {"rate": 0.5, "trainable": true, "name": "dropout_7"}}, "trainable": true, "name": "time_distributed_21"}, "name": "time_distributed_21"}], "input_layers": [["input_1", 0, 0]], "name": "model_1", "output_layers": [["time_distributed_21", 0, 0]]}}], "backend": "tensorflow"}