{"class_name": "Sequential", "keras_version": "2.0.6", "config": [{"class_name": "Conv3D", "config": {"kernel_initializer": {"class_name": "VarianceScaling", "config": {"distribution": "uniform", "scale": 1.0, "seed": null, "mode": "fan_avg"}}, "name": "conv3d_1", "kernel_constraint": null, "bias_regularizer": null, "bias_constraint": null, "dtype": "float32", "activation": "linear", "trainable": true, "data_format": "channels_last", "filters": 128, "padding": "same", "strides": [1, 4, 4], "dilation_rate": [1, 1, 1], "kernel_regularizer": null, "bias_initializer": {"class_name": "Zeros", "config": {}}, "batch_input_shape": [null, 10, 128, 128, 3], "use_bias": true, "activity_regularizer": null, "kernel_size": [3, 11, 11]}}, {"class_name": "TimeDistributed", "config": {"layer": {"class_name": "BatchNormalization", "config": {"beta_constraint": null, "gamma_initializer": {"class_name": "Ones", "config": {}}, "moving_mean_initializer": {"class_name": "Zeros", "config": {}}, "name": "batch_normalization_1", "epsilon": 0.001, "trainable": true, "moving_variance_initializer": {"class_name": "Ones", "config": {}}, "beta_initializer": {"class_name": "Zeros", "config": {}}, "scale": true, "axis": -1, "gamma_constraint": null, "gamma_regularizer": null, "beta_regularizer": null, "momentum": 0.99, "center": true}}, "trainable": true, "name": "time_distributed_1"}}, {"class_name": "TimeDistributed", "config": {"layer": {"class_name": "Activation", "config": {"activation": "relu", "trainable": true, "name": "activation_1"}}, "trainable": true, "name": "time_distributed_2"}}, {"class_name": "TimeDistributed", "config": {"layer": {"class_name": "Dropout", "config": {"rate": 0.5, "trainable": true, "name": "dropout_1"}}, "trainable": true, "name": "time_distributed_3"}}, {"class_name": "Conv3D", "config": {"kernel_constraint": null, "kernel_initializer": {"class_name": "VarianceScaling", "config": {"distribution": "uniform", "scale": 1.0, "seed": null, "mode": "fan_avg"}}, "name": "conv3d_2", "bias_regularizer": null, "bias_constraint": null, "activation": "linear", "trainable": true, "data_format": "channels_last", "padding": "same", "strides": [1, 2, 2], "dilation_rate": [1, 1, 1], "kernel_regularizer": null, "filters": 64, "bias_initializer": {"class_name": "Zeros", "config": {}}, "use_bias": true, "activity_regularizer": null, "kernel_size": [3, 5, 5]}}, {"class_name": "TimeDistributed", "config": {"layer": {"class_name": "BatchNormalization", "config": {"beta_constraint": null, "gamma_initializer": {"class_name": "Ones", "config": {}}, "moving_mean_initializer": {"class_name": "Zeros", "config": {}}, "name": "batch_normalization_2", "epsilon": 0.001, "trainable": true, "moving_variance_initializer": {"class_name": "Ones", "config": {}}, "beta_initializer": {"class_name": "Zeros", "config": {}}, "scale": true, "axis": -1, "gamma_constraint": null, "gamma_regularizer": null, "beta_regularizer": null, "momentum": 0.99, "center": true}}, "trainable": true, "name": "time_distributed_4"}}, {"class_name": "TimeDistributed", "config": {"layer": {"class_name": "Activation", "config": {"activation": "relu", "trainable": true, "name": "activation_2"}}, "trainable": true, "name": "time_distributed_5"}}, {"class_name": "TimeDistributed", "config": {"layer": {"class_name": "Dropout", "config": {"rate": 0.5, "trainable": true, "name": "dropout_2"}}, "trainable": true, "name": "time_distributed_6"}}], "backend": "tensorflow"}